…
trainable\n","for layer in model.layers[-6:]:\n","    layer.trainable = True\n","    print(\"Layer '%s' is trainable\" % layer.name)"],"execution_count":12,"outputs":[{"output_type":"stream","text":["Model: \"vgg16\"\n","_________________________________________________________________\n","Layer (type)                 Output Shape              Param #   \n","=================================================================\n","input_2 (InputLayer)         [(None, 224, 224, 3)]     0         \n","_________________________________________________________________\n","block1_conv1 (Conv2D)        (None, 224, 224, 64)      1792      \n","_________________________________________________________________\n","block1_conv2 (Conv2D)        (None, 224, 224, 64)      36928     \n","_________________________________________________________________\n","block1_pool (MaxPooling2D)   (None, 112, 112, 64)      0         \n","_________________________________________________________________\n","block2_conv1 (Conv2D)        (None, 112, 112, 128)     73856     \n","_________________________________________________________________\n","block2_conv2 (Conv2D)        (None, 112, 112, 128)     147584    \n","_________________________________________________________________\n","block2_pool (MaxPooling2D)   (None, 56, 56, 128)       0         \n","_________________________________________________________________\n","block3_conv1 (Conv2D)        (None, 56, 56, 256)       295168    \n","_________________________________________________________________\n","block3_conv2 (Conv2D)        (None, 56, 56, 256)       590080    \n","_________________________________________________________________\n","block3_conv3 (Conv2D)        (None, 56, 56, 256)       590080    \n","_________________________________________________________________\n","block3_pool (MaxPooling2D)   (None, 28, 28, 256)       0         \n","_________________________________________________________________\n","block4_conv1 (Conv2D)        (None, 28, 28, 512)       1180160   \n","_________________________________________________________________\n","block4_conv2 (Conv2D)        (None, 28, 28, 512)       2359808   \n","_________________________________________________________________\n","block4_conv3 (Conv2D)        (None, 28, 28, 512)       2359808   \n","_________________________________________________________________\n","block4_pool (MaxPooling2D)   (None, 14, 14, 512)       0         \n","_________________________________________________________________\n","block5_conv1 (Conv2D)        (None, 14, 14, 512)       2359808   \n","_________________________________________________________________\n","block5_conv2 (Conv2D)        (None, 14, 14, 512)       2359808   \n","_________________________________________________________________\n","block5_conv3 (Conv2D)        (None, 14, 14, 512)       2359808   \n","_________________________________________________________________\n","block5_pool (MaxPooling2D)   (None, 7, 7, 512)         0         \n","_________________________________________________________________\n","flatten (Flatten)            (None, 25088)             0         \n","_________________________________________________________________\n","fc1 (Dense)                  (None, 4096)              102764544 \n","_________________________________________________________________\n","fc2 (Dense)                  (None, 4096)              16781312  \n","_________________________________________________________________\n","predictions (Dense)          (None, 1000)              4097000   \n","=================================================================\n","Total params: 138,357,544\n","Trainable params: 138,357,544\n","Non-trainable params: 0\n","_________________________________________________________________\n","Model: \"model_1\"\n","_________________________________________________________________\n","Layer (type)                 Output Shape              Param #   \n","=================================================================\n","input_2 (InputLayer)         [(None, 224, 224, 3)]     0         \n","_________________________________________________________________\n","block1_conv1 (Conv2D)        (None, 224, 224, 64)      1792      \n","_________________________________________________________________\n","block1_conv2 (Conv2D)        (None, 224, 224, 64)      36928     \n","_________________________________________________________________\n","block1_pool (MaxPooling2D)   (None, 112, 112, 64)      0         \n","_________________________________________________________________\n","block2_conv1 (Conv2D)        (None, 112, 112, 128)     73856     \n","_________________________________________________________________\n","block2_conv2 (Conv2D)        (None, 112, 112, 128)     147584    \n","_________________________________________________________________\n","block2_pool (MaxPooling2D)   (None, 56, 56, 128)       0         \n","_________________________________________________________________\n","block3_conv1 (Conv2D)        (None, 56, 56, 256)       295168    \n","_________________________________________________________________\n","block3_conv2 (Conv2D)        (None, 56, 56, 256)       590080    \n","_________________________________________________________________\n","block3_conv3 (Conv2D)        (None, 56, 56, 256)       590080    \n","_________________________________________________________________\n","block3_pool (MaxPooling2D)   (None, 28, 28, 256)       0         \n","_________________________________________________________________\n","block4_conv1 (Conv2D)        (None, 28, 28, 512)       1180160   \n","_________________________________________________________________\n","block4_conv2 (Conv2D)        (None, 28, 28, 512)       2359808   \n","_________________________________________________________________\n","block4_conv3 (Conv2D)        (None, 28, 28, 512)       2359808   \n","_________________________________________________________________\n","block4_pool (MaxPooling2D)   (None, 14, 14, 512)       0         \n","_________________________________________________________________\n","block5_conv1 (Conv2D)        (None, 14, 14, 512)       2359808   \n","_________________________________________________________________\n","block5_conv2 (Conv2D)        (None, 14, 14, 512)       2359808   \n","_________________________________________________________________\n","block5_conv3 (Conv2D)        (None, 14, 14, 512)       2359808   \n","_________________________________________________________________\n","block5_pool (MaxPooling2D)   (None, 7, 7, 512)         0         \n","_________________________________________________________________\n","flatten (Flatten)            (None, 25088)             0         \n","_________________________________________________________________\n","fc1 (Dense)                  (None, 4096)              102764544 \n","_________________________________________________________________\n","fc2 (Dense)                  (None, 4096)              16781312  \n","_________________________________________________________________\n","predictions (Dense)          (None, 2)                 8194      \n","=================================================================\n","Total params: 134,268,738\n","Trainable params: 134,268,738\n","Non-trainable params: 0\n","_________________________________________________________________\n","Layer 'block5_conv3' is trainable\n","Layer 'block5_pool' is trainable\n","Layer 'flatten' is trainable\n","Layer 'fc1' is trainable\n","Layer 'fc2' is train
…
rcontent.com/a-/AAuE7mCwvjK2fpuY9eA77y607KGfQi2lVj00ltzHI5EQK6g=s64","userId":"10448023072828963196"}}},"source":["model.summary()"],"execution_count":13,"outputs":[{"output_type":"stream","text":["Model: \"model_1\"\n","_________________________________________________________________\n","Layer (type)                 Output Shape              Param #   \n","=================================================================\n","input_2 (InputLayer)         [(None, 224, 224, 3)]     0         \n","_________________________________________________________________\n","block1_conv1 (Conv2D)        (None, 224, 224, 64)      1792      \n","_________________________________________________________________\n","block1_conv2 (Conv2D)        (None, 224, 224, 64)      36928     \n","_________________________________________________________________\n","block1_pool (MaxPooling2D)   (None, 112, 112, 64)      0         \n","_________________________________________________________________\n","block2_conv1 (Conv2D)        (None, 112, 112, 128)     73856     \n","_________________________________________________________________\n","block2_conv2 (Conv2D)        (None, 112, 112, 128)     147584    \n","_________________________________________________________________\n","block2_pool (MaxPooling2D)   (None, 56, 56, 128)       0         \n","_________________________________________________________________\n","block3_conv1 (Conv2D)        (None, 56, 56, 256)       295168    \n","_________________________________________________________________\n","block3_conv2 (Conv2D)        (None, 56, 56, 256)       590080    \n","_________________________________________________________________\n","block3_conv3 (Conv2D)        (None, 56, 56, 256)       590080    \n","_________________________________________________________________\n","block3_pool (MaxPooling2D)   (None, 28, 28, 256)       0         \n","_________________________________________________________________\n","block4_conv1 (Conv2D)        (None, 28, 28, 512)       1180160   \n","_________________________________________________________________\n","block4_conv2 (Conv2D)        (None, 28, 28, 512)       2359808   \n","_________________________________________________________________\n","block4_conv3 (Conv2D)        (None, 28, 28, 512)       2359808   \n","_________________________________________________________________\n","block4_pool (MaxPooling2D)   (None, 14, 14, 512)       0         \n","_________________________________________________________________\n","block5_conv1 (Conv2D)        (None, 14, 14, 512)       2359808   \n","_________________________________________________________________\n","block5_conv2 (Conv2D)        (None, 14, 14, 512)       2359808   \n","_________________________________________________________________\n","block5_conv3 (Conv2D)        (None, 14, 14, 512)       2359808   \n","_________________________________________________________________\n","block5_pool (MaxPooling2D)   (None, 7, 7, 512)         0         \n","_________________________________________________________________\n","flatten (Flatten)            (None, 25088)             0         \n","_________________________________________________________________\n","fc1 (Dense)                  (None, 4096)              102764544 \n","_________________________________________________________________\n","fc2 (Dense)                  (None, 4096)              16781312  \n","_________________________________________________________________\n","predictions (Dense)          (None, 2)                 8194      \n","=================================================================\n","Total params: 134,268,738\n","Trainable params: 121,913,858\n","Non-trainable params: 12,354,880\n","_________________________________________________________________\n"],"name":"stdout"}]},{"cell_type":"code","metadata":{"id":"8DtpD9RNAtot","colab_type":"code","colab":{}},"source":["# compile the model\n","\n","from 
…
